…
            "      (normalize): Normalize(mean=(0.798, 0.785, 0.772), std=(0.264, 0.2749, 0.287))\n",
            "    )\n",
            "    (model): FAST()\n",
            "  )\n",
            "  (reco_predictor): RecognitionPredictor(\n",
            "    (pre_processor): PreProcessor(\n",
            "      (resize): Resize(output_size=(32, 128), interpolation='bilinear', preserve_aspect_ratio=True, symmetric_pad=False)\n",
            "      (normalize): Normalize(mean=(0.694, 0.695, 0.693), std=(0.299, 0.296, 0.301))\n",
            "    )\n",
            "    (model): CRNN(\n",
            "      (feat_extractor): Sequential(\n",
            "        (0): Conv2d(3, 64, kernel_size=(3, 3), stride=(1, 1), padding=(1, 1))\n",
            "        (1): BatchNorm2d(64, eps=1e-05, momentum=0.1, affine=True, track_running_stats=True)\n",
            "        (2): ReLU(inplace=True)\n",
            "        (3): Conv2d(64, 64, kernel_size=(3, 3), stride=(1, 1), padding=(1, 1))\n",
            "        (4): BatchNorm2d(64, eps=1e-05, momentum=0.1, affine=True, track_running_stats=True)\n",
            "        (5): ReLU(inplace=True)\n",
            "        (6): MaxPool2d(kernel_size=2, stride=2, padding=0, dilation=1, ceil_mode=False)\n",
            "        (7): Conv2d(64, 128, kernel_size=(3, 3), stride=(1, 1), padding=(1, 1))\n",
            "        (8): BatchNorm2d(128, eps=1e-05, momentum=0.1, affine=True, track_running_stats=True)\n",
            "        (9): ReLU(inplace=True)\n",
            "        (10): Conv2d(128, 128, kernel_size=(3, 3), stride=(1, 1), padding=(1, 1))\n",
            "        (11): BatchNorm2d(128, eps=1e-05, momentum=0.1, affine=True, track_running_stats=True)\n",
            "        (12): ReLU(inplace=True)\n",
            "        (13): MaxPool2d(kernel_size=2, stride=2, padding=0, dilation=1, ceil_mode=False)\n",
            "        (14): Conv2d(128, 256, kernel_size=(3, 3), stride=(1, 1), padding=(1, 1))\n",
            "        (15): BatchNorm2d(256, eps=1e-05, momentum=0.1, affine=True, track_running_stats=True)\n",
            "        (16): ReLU(inplace=True)\n",
            "        (17): Conv2d(256, 256, kernel_size=(3, 3), stride=(1, 1), padding=(1, 1))\n",
            "        (18): BatchNorm2d(256, eps=1e-05, momentum=0.1, affine=True, track_running_stats=True)\n",
            "        (19): ReLU(inplace=True)\n",
            "        (20): Conv2d(256, 256, kernel_size=(3, 3), stride=(1, 1), padding=(1, 1))\n",
            "        (21): BatchNorm2d(256, eps=1e-05, momentum=0.1, affine=True, track_running_stats=True)\n",
            "        (22): ReLU(inplace=True)\n",
            "        (23): MaxPool2d(kernel_size=(2, 1), stride=(2, 1), padding=0, dilation=1, ceil_mode=False)\n",
            "        (24): Conv2d(256, 512, kernel_size=(3, 3), stride=(1, 1), padding=(1, 1))\n",
            "        (25): BatchNorm2d(512, eps=1e-05, momentum=0.1, affine=True, track_running_stats=True)\n",
            "        (26): ReLU(inplace=True)\n",
            "        (27): Conv2d(512, 512, kernel_size=(3, 3), stride=(1, 1), padding=(1, 1))\n",
            "        (28): BatchNorm2d(512, eps=1e-05, momentum=0.1, affine=True, track_running_stats=True)\n",
            "        (29): ReLU(inplace=True)\n",
            "        (30): Conv2d(512, 512, kernel_size=(3, 3), stride=(1, 1), padding=(1, 1))\n",
            "        (31): BatchNorm2d(512, eps=1e-05, momentum=0.1, affine=True, track_running_stats=True)\n",
            "        (32): ReLU(inplace=True)\n",
            "        (33): MaxPool2d(kernel_size=(2, 1), stride=(2, 1), padding=0, dilation=1, ceil_mode=False)\n",
            "        (34): Conv2d(512, 512, kernel_size=(3, 3), stride=(1, 1), padding=(1, 1))\n",
            "        (35): BatchNorm2d(512, eps=1e-05, momentum=0.1, affine=True, track_running_stats=True)\n",
            "        (36): ReLU(inplace=True)\n",
            "        (37): Conv2d(512, 512, kernel_size=(3, 3), stride=(1, 1), padding=(1, 1))\n",
            "        (38): BatchNorm2d(512, eps=1e-05, momentum=0.1, affine=True, track_running_stats=True)\n",
            "        (39): ReLU(inplace=True)\n",
            "        (40): Conv2d(512, 512, kernel_size=(3, 3), stride=(1, 1), padding=(1, 1))\n",
            "        (41): BatchNorm2d(512, eps=1e-05, momentum=0.1, affine=True, track_running_stats=True)\n",
            "        (42): ReLU(inplace=True)\n",
            "        (43): MaxPool2d(kernel_size=(2, 1), stride=(2, 1), padding=0, dilation=1, ceil_mode=False)\n",
            "      )\n",
            "      (decoder): LSTM(512, 128, num_layers=2, batch_first=True, bidirectional=True)\n",
            "      (linear): Linear(in_features=256, out_features=124, bias=True)\n",
            "      (postprocessor): CTCPostProcessor(vocab_size=123)\n",
            "    )\n",
            "  )\n",
            ")\n"
          ]
        }
      ],
      "source": [
        "# Display the architecture\n",
        "print(predictor)"
      ]
    },
    {
      "cell_type": "markdown",
      "metadata": {
        "id": "dlrtkNzTURAo"
…
